data.pth (torch, 15288 bytes, 4 tensors)

fc1.weight f4 [8, 241]
0.4052746 0.35812023 0.558042 -0.36039224 -0.34689593 0.50457215 0.4515662 0.3303774
1.2784007 -0.07503353 -0.98976654 0.27623168 -1.1910136 0.91123307 -1.3466389 0.47888872
-0.070783354 -0.057231534 -0.36573297 0.39942572 -0.7776282 -0.07088109 -0.5376139 0.7891239
-0.86172324 -0.6104647 0.25461558 1.016609 -0.5137279 1.0921582 -0.7964493 -0.11968037
0.18081342 -0.18831868 -0.52910113 -0.62598145 1.6545185 -0.6576504 -1.5144602 0.11649272
-1.2779173 0.27634227 -0.4571255 -0.002569772 -0.78014094 -0.47800997 -0.13768335 -0.6938866
0.113696076 -0.38149077 0.9425059 0.7087312 -1.3248107 -0.40471396 -1.1038997 0.7270615
-1.1569307 0.17455581 -0.33145046 1.6701798 0.114620246 1.5364527 1.1159577 -0.9248741
-0.6333417 -0.0040079528 -0.3317492 -0.21619342 0.28073296 -0.10423089 -0.73709995 -0.36465228
-0.0744006 -0.9271677 -0.09348074 -0.585219 -1.408226 -0.036449883 0.24183607 0.6830319
-0.19682749 -0.289947 0.63983244 -0.15234475 0.27562863 0.5592536 -0.23206459 0.5661175
0.94546306 0.95861346 -0.30929443 0.4268391 -0.5421296 -0.60614914 -0.9880888 -0.5179931
0.43817893 0.80347383 -1.5208677 1.4144326 1.2171946 0.36144665 0.018435165 1.1551075
-1.2850919 -0.540318 1.0633262 1.2081983 1.0519388 1.180011 1.1962833 0.7752206
0.94397086 -1.1432658 -1.0207374 0.34244186 -0.45228827 -0.41752455 0.035823196 -0.24753685
-0.10091645 0.31233352 -0.8251826 -0.88817817 0.49784368 -0.08989594 0.5460737 0.28119248
-0.06335994 1.3223948 -0.37651002 -0.556816 -0.4290782 1.0368073 1.6548024 -1.0423433
1.0407661 0.9894637 1.614713 -1.1562842 0.18612148 -1.0946963 2.0289347 0.47669682
0.5230348 0.007433259 0.2721495 0.07197112 0.096448965 -0.054973293 0.7874715 0.008650377
1.5756202 -0.30889702 0.06966577 0.22317259 0.97379094 -0.2701963 0.5091988 1.0049379
-1.3493422 -2.5677345 -0.7406374 0.0001617622 0.31994167 -0.11162001 -0.7885315 0.7066322
0.5316034 -0.32602867 -0.00770746 1.5718852 -0.05792528 1.6159867 -0.62359375 -1.3643211
0.22838345 -0.47809905 0.4998097 -0.73229384 -0.8645538 0.07767126 -0.25144908 -0.16249628
-1.2808763 -1.1243091 -1.4393142 -0.788998 -0.42439386 -0.8312088 -1.5304856 0.43754938
-0.98344374 -0.9272956 -0.5954443 0.2931133 -0.5840725 0.6236356 -0.5350776 0.44410977
0.39036784 -1.1064652 1.6857659 -0.6572857 -0.5699076 1.379007 0.8003318 0.041050106
-1.0906196 0.67201453 0.17546557 -0.3544889 0.43871874 -0.41189894 -1.0171008 0.1525243
1.9530132 0.09736973 0.42974234 -0.08628766 0.6407115 -0.53810084 0.19771738 -0.3098896
-0.15094678 1.9361238 -0.38127506 -0.10556912 -0.43816167 1.249603 1.2014666 0.53810424
-0.06162556 -0.024986435 0.6237668 -0.5359702 1.9975798 1.7595619 -0.5922629 1.103287
1.1320503 -0.06590669 0.0963837 1.0595003 -0.46857178 -0.4995804 -0.021929165 -0.0056479387
-0.7746215 -1.1224991 -0.52822196 -1.062183 -1.0727311 0.4062371 0.1596612 0.7389202
00000000: 2780 cf3e 895b b73e d7db 0e3f 5585 b8be
00000010: 589c b1be a42b 013f af33 e73e 3a27 a93e
00000020: a2a2 a33f 2eab 99bd 5761 7dbf 3d6e 8d3e
00000030: 2273 98bf 9246 693f aa5e acbf e730 f53e
00000040: ddf6 90bd 9d6b 6abd 5a41 bbbe 8781 cc3e
00000050: a412 47bf 1b2a 91bd 11a1 09bf 0604 4a3f
00000060: e599 5cbf 6a47 1cbf f95c 823e 3e20 823f
00000070: ac83 03bf d7cb 8b3f 1ae4 4bbf fb1a f5bd
00000080: 2727 393e 9dd6 40be 2c73 07bf 5240 20bf
00000090: 43c7 d33f c75b 28bf d5d9 c1bf bc93 ee3d
000000a0: cb92 a3bf bc7c 8d3e 5b0c eabe 9f69 28bb
000000b0: 51b7 47bf b9bd f4be ddfc 0cbe 8da2 31bf
000000c0: 7dd9 e83d c252 c3be 1148 713f 686f 353f
000000d0: 6693 a9bf ab36 cfbe 964c 8dbf b420 3a3f
000000e0: 4e16 94bf c2be 323e e0b3 a9be 74c8 d53f
000000f0: 05be ea3d 7baa c43f b4d7 8e3f 8dc4 6cbf
00000100: af22 22bf 2555 83bb 08db a9be cf61 5dbe
00000110: 3bbc 8f3e 0177 d5bd 95b2 3cbf b4b3 babe
00000120: 575f 98bd dd5a 6dbf d572 bfbd ead0 15bf
00000130: c040 b4bf 794c 15bd e0a3 773e 2edb 2e3f
00000140: 258d 49be ef73 94be 0fcc 233f 4300 1cbe
00000150: 321f 8d3e 3e2b 0f3f 57a2 6dbe 14ed 103f
00000160: de09 723f b167 753f d75b 9ebe a88a da3e
00000170: 01c9 0abf 972c 1bbf 63f3 7cbf 329b 04bf
00000180: fd58 e03e 76b0 4d3f cbab c2bf 210c b53f
00000190: 08cd 9b3f 890f b93e 5805 973c 90da 933f
000001a0: e47d a4bf 4852 0abf 131b 883f 3ea6 9a3f
000001b0: eea5 863f 9a0a 973f d01f 993f db74 463f
000001c0: 13a8 713f 8956 92bf 86a7 82bf 8a54 af3e
000001d0: 5492 e7be c7c5 d5be 58bb 123d 4d7a 7dbe
000001e0: 49ad cebd 2eea 9f3e 2b3f 53bf a55f 63bf
000001f0: 5ee5 fe3e 5d1b b8bd 7ccb 0b3f 76f8 8f3e
00000200: dbc2 81bd 3c44 a93f ecc5 c0be 7e8b 0ebf
00000210: 23b0 dbbe 1ab6 843f 91d0 d33f 816b 85bf
00000220: d337 853f 7e4d 7d3f eaae ce3f 1f01 94bf
00000230: a196 3e3e 021f 8cbf 11da 0140 9b11 f43e
00000240: 9ce5 053f b292 f33b 2e57 8b3e 9865 933d
00000250: 0987 c53d ad2b 61bd bb97 493f 50ba 0d3c
00000260: ecad c93f c027 9ebe edac 8e3d 5b87 643e
00000270: 5d4a 793f 2b57 8abe da5a 023f cea1 803f
00000280: 3fb7 acbf c355 24c0 6a9a 3dbf b69e 2939
00000290: 65cf a33e 0899 e4bd 33dd 49bf d9e5 343f
000002a0: 2917 083f 3bed a6be dc8e fcbb 8933 c93f
000002b0: 0f43 6dbd a7d8 ce3f d7a3 1fbf 13a2 aebf
000002c0: 5add 693e 66c9 f4be 0fe7 ff3e 9c77 3bbf
000002d0: 6653 5dbf 1c12 9f3d efbd 80be 6d65 26be
000002e0: c1f3 a3bf 5ce9 8fbf 733b b8bf c6fb 49bf
000002f0: 274a d9be 1aca 54bf f4e6 c3bf 7906 e03e
00000300: f8c2 7bbf 3f63 6dbf 0a6f 18bf f212 963e
00000310: c685 15bf 95a6 1f3f d8fa 08bf 5b62 e33e
00000320: 4bde c73e a7a0 8dbf 2dc7 d73f e043 28bf
00000330: 77e5 11bf 4d83 b03f 8be2 4c3f 2824 283d
00000340: 6c99 8bbf 2509 2c3f 3fad 333e 927f b5be
00000350: be9f e03e 6be4 d2be 5c30 82bf 552f 1c3e
00000360: 56fc f93f c869 c73d 3007 dc3e 96b7 b0bd
00000370: ab05 243f fac0 09bf 6d76 4a3e daa9 9ebe
00000380: cb91 1abe e8d2 f73f 7c36 c3be 9f34 d8bd
00000390: ba56 e0be fef2 9f3f a8c9 993f 33c1 093f
000003a0: 156b 7cbd 5ab0 ccbc 2eaf 1f3f 5835 09bf
000003b0: b2b0 ff3f 5339 e13f 8b9e 17bf 8238 8d3f
000003c0: 06e7 903f 16fa 86bd d164 c53d b59d 873f
000003d0: a4e8 efbe 01c9 ffbe cba4 b3bc 5812 b9bb
000003e0: 984d 46bf 0dae 8fbf 8e39 07bf 9df5 87bf
000003f0: 414f 89bf 4ffe cf3e 3a7e 233e e029 3d3f

fc1.bias f4 [8]
1.5821749 2.1696067 1.3134861 1.035698 1.3990772 1.3502823 1.4464461 1.3897818
00000000: b584 ca3f d6da 0a40 5020 a83f c191 843f
00000010: f614 b33f 0dd6 ac3f 2525 b93f 5fe4 b13f

fc2.weight f4 [39, 8]
0.8843685 0.33539975 -4.757664 -0.39005333 0.39699352 -4.613254 -0.48919094 0.305337
-0.9232263 0.67064744 0.42937174 -0.3584693 -4.475742 -0.14828749 0.22641237 -0.0070596337
-3.1097424 -3.5080097 1.4425616 1.5209798 -3.5520682 0.5555213 0.66870046 -3.5793025
1.3060803 0.90577346 1.0861673 -5.0849447 0.066281624 -4.880346 -4.517845 -1.2565267
-0.22956452 1.2528007 -2.114816 1.0954121 -3.694898 -2.9047315 1.3125863 -2.757263
0.4223764 -4.0862837 0.7012154 -2.1744814 -3.6108763 -3.6877599 1.1066391 0.7546958
-3.9430525 -2.936459 0.9242203 0.2822998 -2.4423819 -2.8266745 -0.1943842 1.4829506
-3.3794508 -3.7688107 -1.1030318 0.8337766 0.8917253 -2.3167775 -2.2779863 1.1910437
1.9589942 -3.213423 0.86328197 -3.7158852 -3.4773653 -3.2667112 -4.3786144 1.7206602
-1.7614241 -1.8036355 0.29663587 0.16949613 0.8261105 -2.7422905 0.97436357 -2.5915582
1.1462722 -0.05516916 -0.9075318 -0.9964338 -3.463849 1.923143 -0.6127306 -2.5507946
-4.188659 0.48998305 -3.498646 -1.6873738 0.5284838 0.72692233 0.31332573 0.064681135
0.81751007 -2.2104542 -1.7304672 0.26016274 -4.5576763 -0.23537654 -0.28513348 1.1389594
-1.8098742 -1.0568488 -3.515328 0.77173764 -1.6132407 0.5893953 0.39070737 0.32541358
-3.6928282 1.3486156 -1.866175 0.41725233 -0.9564028 -2.3884597 0.28543502 0.77299446
0.6380317 -4.379813 -1.7933488 0.2582843 0.43491083 -4.140316 0.5907413 0.029072521
-1.9690654 -3.9879236 0.4441698 -1.1886803 -0.49699095 0.541772 0.34024492 0.28334162
0.015984844 -3.3754263 -1.9526362 -0.08519066 0.43109283 0.57891256 -0.3771374 -0.85164976
0.6044452 -4.628049 0.26851878 -0.45335135 0.9953734 0.038961165 -4.2164865 -0.7417481
0.6280661 -3.6721804 -0.112522624 -4.560542 -0.7448578 0.51398134 -0.67903143 0.7276792
-0.08345789 -0.028834634 0.4337602 0.27001134 -1.2143162 0.7907875 -4.0452466 -3.4869742
-2.938597 0.8343846 0.6422159 -3.020321 0.28094184 -0.9643879 -4.011113 1.459133
0.65590686 -0.330336 -0.03484514 0.31816527 -1.6609437 -0.8609464 -3.9136286 0.54890335
-2.1770895 1.1081678 1.0180713 -4.8016567 -1.8680147 0.915744 1.1594524 -3.4514048
-0.8535443 0.84350055 0.27331996 -0.8655176 0.97177637 -1.6714164 -1.7469454 -4.0141206
0.7270113 0.99234986 -3.315033 -3.4740653 0.21244662 0.4629941 -0.9696635 0.5921339
-4.217545 -1.3005191 0.04583295 0.7856694 -0.801297 0.08947088 -1.3405694 0.37087387
-0.4815426 -0.35031572 0.090860665 -1.6894362 0.06283245 0.6311647 -1.409755 -0.77610564
0.58235204 -2.6790135 -0.9069796 -4.474787 0.6094595 0.28764814 1.0163908 -0.94107175
0.95822835 1.1229783 -0.23457234 -3.3086996 -1.2139039 -3.8373554 0.8988956 -0.3048101
0.99869156 -0.73157585 -3.1417913 0.22943306 -0.28974816 -0.37703636 0.28666234 -4.041091
-3.3377523 -0.29298198 0.8363861 0.63623565 0.5327524 -2.38047 -3.6703103 -1.1255163
00000000: f965 623f 84b9 ab3e c93e 98c0 12b5 c7be
00000010: bc42 cb3e c79f 93c0 3c77 fabe 2255 9c3e
00000020: 8f58 6cbf 8daf 2b3f 9dd6 db3e 4a89 b7be
00000030: 4739 8fc0 add8 17be a5d8 673e 8054 e7bb
00000040: 0506 47c0 3b83 60c0 dca5 b83f 77af c23f
00000050: 1655 63c0 a536 0e3f f42f 2b3f 4b13 65c0
00000060: a42d a73f c5e0 673f 8807 8b3f deb7 a2c0
00000070: a9be 873d cb2b 9cc0 3092 90c0 ded5 a0bf
00000080: f612 6bbe c65b a03f 2559 07c0 7736 8c3f
00000090: 3579 6cc0 1fe7 39c0 d402 a83f ff76 30c0
000000a0: b841 d83e d6c2 82c0 da82 333f b42a 0bc0
000000b0: 9918 67c0 4204 6cc0 5aa6 8d3f be33 413f
000000c0: f95a 7cc0 f2ee 3bc0 b499 6c3f 9989 903e
000000d0: fc4f 1cc0 3ce8 34c0 a70c 47be 53d1 bd3f
000000e0: ec48 58c0 3234 71c0 2530 8dbf 6272 553f
000000f0: 1c48 643f 1546 14c0 87ca 11c0 1f74 983f
00000100: 52c0 fa3f b9a8 4dc0 0c00 5d3f 10d1 6dc0
00000110: 278d 5ec0 cc11 51c0 9c1d 8cc0 983e dc3f
00000120: 5876 e1bf 87dd e6bf a8e0 973e 6590 2d3e
00000130: fa7b 533f b081 2fc0 e46f 793f 17dc 25c0
00000140: 0cb9 923f 0ff9 61bd 0154 68bf 4916 7fbf
00000150: b4af 5dc0 8d29 f63f eadb 1cbf 3840 23c0
00000160: 7f09 86c0 0fdf fa3e d1e9 5fc0 ddfb d7bf
00000170: b74a 073f 9517 3a3f 3b6c a03e 8b77 843d
00000180: 5748 513f 1578 0dc0 f37f ddbf 0d34 853e
00000190: 7cd8 91c0 8c06 71be 04fd 91be 6cc9 913f
000001a0: f5a9 e7bf d246 87bf 22fb 60c0 9990 453f
000001b0: ac7e cebf 9ce2 163f cc0a c83e 9c9c a63e
000001c0: 4c57 6cc0 709f ac3f d3de eebf 19a2 d53e
000001d0: d0d6 74bf 86dc 18c0 8a24 923e f7e2 453f
000001e0: 0c56 233f 6e27 8cc0 748c e5bf d73d 843e
000001f0: a2ac de3e 787d 84c0 d23a 173f 7f29 ee3c
00000200: 560a fcbf 243a 7fc0 396a e33e ad26 98bf
00000210: 9975 febe 92b1 0a3f 9534 ae3e 2712 913e
00000220: a6f2 823c fc06 58c0 fcef f9bf 7178 aebd
00000230: 33b8 dc3e 9d33 143f 2718 c1be b805 5abf
00000240: ecbc 1a3f fa18 94c0 4b7b 893e ab1d e8be
00000250: cbd0 7e3f be95 1f3d 75ed 86c0 34e3 3dbf
00000260: f1c8 203f 0105 6bc0 4372 e6bd f6ef 91c0
00000270: 00af 3ebf 4894 033f 01d5 2dbf 2f49 3a3f
00000280: f8eb aabd 9c36 ecbc d115 de3e ed3e 8a3e
00000290: b76e 9bbf 0d71 4a3f a972 81c0 962a 5fc0
000002a0: f911 3cc0 3b9a 553f 4368 243f f04c 41c0
000002b0: 9cd7 8f3e 20e2 76bf 0a5b 80c0 dfc4 ba3f
000002c0: 83e9 273f cd21 a9be c7b9 0ebd 8fe6 a23e
000002d0: ce99 d4bf fc66 5cbf e478 7ac0 ee84 0c3f
000002e0: 6f55 0bc0 71d8 8d3f 2950 823f 2ca7 99c0
000002f0: 1b1b efbf 336e 6a3f f068 943f d1e3 5cc0
00000300: e181 5abf a7ef 573f 98f0 8b3e 9092 5dbf
00000310: 56c6 783f f9f0 d5bf e89b dfbf ad73 80c0
00000320: 6a1d 3a3f a40a 7e3f 8029 54c0 1657 5ec0
00000330: 9b8b 593e 900d ed3e de3b 78bf 1696 173f
00000340: 21f6 86c0 6977 a6bf 55bb 3b3d a121 493f
00000350: cd21 4dbf 823c b73d c797 abbf 2ee3 bd3e
00000360: c08c f6be 955c b3be 2815 ba3d 723f d8bf
00000370: 4dae 803d 0394 213f da72 b4bf dcae 46bf
00000380: 0615 153f f574 2bc0 d12f 68bf 7531 8fc0
00000390: 8a05 1c3f 9e46 933e 1819 823f 14ea 70bf
000003a0: 744e 753f c1bd 8f3f bb33 70be bcc1 53c0
000003b0: 3461 9bbf 3b97 75c0 061e 663f 1210 9cbe
000003c0: 40aa 7f3f 8e48 3bbf 1c13 49c0 80f0 6a3e
000003d0: df59 94be e90a c1be 68c5 923e 9e50 81c0
000003e0: bc9d 55c0 bc01 96be 661d 563f 57e0 223f
000003f0: 7662 083f 9f59 18c0 5de6 6ac0 eb10 90bf

fc2.bias f4 [39]
0.03737092 -0.7542002 0.38388637 0.823334 0.37201196 0.50540537 0.58081675 0.6469078
0.82585114 0.46084076 0.36503407 -0.6146428 0.42146415 -0.6985437 0.4499986 -0.30095816
-0.895555 -1.0572094 0.35471258 0.23011108 -0.529815 0.516921 -0.07215263 0.46080986
-0.4172287 0.24632359 -0.45063418 -1.5336952 -0.40627187 -0.32098666 -0.23255847 -0.16380866
0.7228087 -0.059066113 0.4861385 0.51042676 -0.060487345 -0.46918958 0.51425856
00000000: 4012 193d 4413 41bf c18c c43e 04c6 523f
00000010: 5a78 be3e 3f62 013f 68b0 143f c09b 253f
00000020: fb6a 533f 52f3 eb3e bfe5 ba3e 3b59 1dbf
00000030: 26ca d73e c3d3 32bf 3766 e63e 3017 9abe
00000040: 1843 65bf a352 87bf e39c b53e 3da2 6b3e
00000050: f5a1 07bf ef54 043f c2c4 93bd 45ef eb3e
00000060: 009f d5be 403c 7c3e 86b9 e6be 2050 c4bf
00000070: de02 d0be 5d58 a4be cf23 6ebe 75bd 27be
00000080: fe09 393f 4fef 71bd 25e7 f83e 54ab 023f
00000090: 94c1 77bd 9e39 f0be 73a6 033f
